data.pth (torch, 5349 bytes, 6 tensors)

l1.weight f4 [8, 54]
00000000: 4010 793e 5f15 b63d 70f7 95be fd5f d4bd
00000010: 1e1d 9c3d 9937 c6be 7d83 0bbe 1c9c 86be
00000020: 8553 90be b3bc dbbe 8186 8ebc cc60 f03e
00000030: 38f4 153e fc9b 173f a198 39be 20ec d63e
00000040: 8389 1dbd 2736 c6be 5841 933d 583e 213e
00000050: 298a b63e c7e7 f43d f377 a23c 77d8 243f
00000060: fdc3 3d3e e113 ecbd f73a 1f3e bc21 c3be
00000070: 377f 9a3c c153 a5be 9367 17be 06c4 283f
00000080: a781 743e 3e4d 76be 5f96 a1bd 492c 953e
00000090: 6770 59bd 340d 94be 47e7 67be deb8 9bbd
000000a0: fb7d 6dbd 0f46 a83e a727 0d3f 5659 e1bd
000000b0: 886d df3e ef32 aabc 849c 0c3f ab55 5a3e
000000c0: eeb4 5abc 36a8 9f3e 8134 fa3e ab05 0c3e
000000d0: 1970 a9bd bd2c db3d 2eb8 34be 53c5 c0be
000000e0: 4ea3 0e3f 5d0c bd3e 3b51 163f f0ce 24bf
000000f0: 233f f03e 73d3 fa3e 6a80 2b3f 0c4c 243f
00000100: 109d 033f 9ce6 c3be c406 c43e ad78 b0be
00000110: 0b5d e0bd 0928 8fbe bf9d f83e 1575 22bf
00000120: c311 33bb 5e63 0d3f 2deb 4bbe e024 083f
00000130: 58b9 243f dc81 be3e 4129 953e 4f4c 573e
00000140: 156d c8be 6645 19be 7443 9bbe cf09 0abe
00000150: 91b8 8cbe fc77 05bf ae73 73bd 780a 1d3f
00000160: 4ac6 d43a c7a8 aebe 231e 86be 5e49 2c3f
00000170: 25d8 ee3e 1d1b 023f 5ade 5dbe 1ce9 93be
00000180: 4aab c3be 3751 20be c3bb 413e c772 41be
00000190: 828c 27bf d138 7cbe e629 953e aea2 a4be
000001a0: d5db b7be 1410 f8bd 1c79 033f 2399 9d3e
000001b0: ef27 4c3e 6e52 9bbe 5240 7e3d 811f f03e
000001c0: 7966 053e 4f0e 253f 65e3 00be 09ee 20be
000001d0: 4b94 c5bd 25b7 b8bc 359c fc3e c97c eb3e
000001e0: c499 b6bc de45 de3e b26d 72be f036 e43e
000001f0: 7578 833e 6720 393f a536 a9bc 4fae 1a3f
00000200: c164 9d3c 39de da3e 95dc c23e 2b81 a73e
00000210: 13e8 be3e f115 ec3e c25e d3be d367 90be
00000220: 613f 3ebe 76d5 e8be f214 e23e ca1e a63e
00000230: 86ab 2e3e 6e28 e73d 65ed 91be 28e5 e13e
00000240: bbe9 47be b2dd 70be adc6 24be b70c 4dbd
00000250: 64ec fc3e 688d b3be 4dc6 4a3e 451d 81be
00000260: ab4f b03e a2d9 f3bd 397f 74bd efb4 b5bd
00000270: 048f 543e 6825 9dbe 4c51 c93e 56b6 ddbd
00000280: df79 c5bd 7755 2e3e b5e2 e13e 9fa2 8c3e
00000290: b962 cc3d 8717 64be af1b 2cbe c5c4 203f
000002a0: a63d 2a3e cc06 8c3e b5b5 8b3e 0ef6 1e3e
000002b0: 86e6 7bbe e0cd d93c 9c37 703d 312b 9f3c
000002c0: b0db e13e a05b 013e 7b32 acbe f476 533f
000002d0: d333 0abe 8ce4 09bf f8b7 333e a25e 0ebf
000002e0: d86e f6be 83a7 e7be db6a 813d c711 e1bd
000002f0: 4030 58be 5187 f93e c3e6 713d d30b ba3e
00000300: de3a 203f f506 303d 4add 4d3e d4be 4d3e
00000310: 1972 e43e 9759 0d3d 7f0b 47bd f5ef 3a3e
00000320: 9b7a 573e 8a8d 1e3e fb26 143f 8b7e 04be
00000330: c8bc 8b3e e296 ab3e d5bf 653e 4536 fc3e
00000340: a3e3 0e3f c954 ae3e 8656 80be 6a23 aabe
00000350: 5c74 b5bd 51da 7cbb 0f89 353e 2d74 9c3e
00000360: e00e bf3e 7a8d 0a3f f3e1 aabd 4447 a2bd
00000370: d3c9 aebe 1135 7cbe 4281 86bc 4bc7 4dbe
00000380: cb0c 993e 0b33 39be fb5d 16be c4e3 cf3d
00000390: 5991 a83e dd5b b4bc b579 a23e 6b13 3b3e
000003a0: eedf cbbd ff56 7cbe f169 123e 2c40 7cbe
000003b0: 8a58 493e c14c 7cbe 4c65 7cbe 6af8 69be
000003c0: b95b 95bc 4310 f8bc 5d11 ba3c dc4b 223f
000003d0: 5bb9 b53c 7b1e 003f cf96 53be 5812 1f3d
000003e0: 1e88 123e 41a6 ec3d 4ede 233f adb2 a5bc
000003f0: 03eb a8bd 4fc1 963e 7674 823d 8037 6e3c
0.24322605 0.08890795 -0.29290342 -0.10369871 0.07622741 -0.38714293 -0.13624378 -0.26290977
-0.2818872 -0.42917404 -0.01739812 0.4694885 0.14643943 0.5922239 -0.1812463 0.41977024
-0.03846122 -0.3871319 0.07190198 0.15746439 0.35652283 0.119582705 0.019832587 0.643928
0.18531795 -0.11527229 0.15549837 -0.38111675 0.018859489 -0.32290462 -0.14785604 0.6592411
0.23877583 -0.24052903 -0.07890009 0.2913535 -0.05308571 -0.28916323 -0.22646819 -0.0760362
-0.057981472 0.3286595 0.5513863 -0.110033676 0.43638253 -0.02077624 0.54926324 0.21321742
-0.013348801 0.31183022 0.48868182 0.13674037 -0.08273334 0.107018925 -0.17648384 -0.37650546
0.55717933 0.36923495 0.587177 -0.6437826 0.4692317 0.48989448 0.6699282 0.6417854
0.51411533 -0.38261878 0.38286412 -0.34467068 -0.109552465 -0.27960232 0.4855785 -0.63459903
-0.002732382 0.5522975 -0.19913931 0.53181267 0.6434531 0.3720845 0.29133037 0.21025203
-0.39145723 -0.1496788 -0.303249 -0.13480304 -0.27484563 -0.52136207 -0.059436493 0.613441
0.0016233411 -0.34113142 -0.26194867 0.6729945 0.4664928 0.5082262 -0.21666852 -0.28888786
-0.3821662 -0.15655981 0.18919282 -0.1889144 -0.6544877 -0.24631049 0.29133528 -0.32155365
-0.35909906 -0.12112442 0.51356673 0.30780897 0.19937108 -0.30336326 0.06207306 0.46899036
0.13027371 0.6447496 -0.12586744 -0.15715803 -0.09647425 -0.022548268 0.49337927 0.4599364
-0.022290118 0.4341268 -0.23674658 0.44573164 0.2567784 0.7231507 -0.02065594 0.60422224
0.019213082 0.42747667 0.38058916 0.32715735 0.37286434 0.4611049 -0.41283232 -0.28204212
-0.18578865 -0.45475358 0.44156605 0.32445365 0.17057618 0.11287008 -0.2850143 0.44120145
-0.19522755 -0.2352207 -0.16091414 -0.050060954 0.49399102 -0.35068822 0.19802208 -0.25217643
0.34435782 -0.119067445 -0.05969164 -0.08872401 0.20757681 -0.306926 0.39319837 -0.108257934
-0.09642386 0.1702479 0.44118276 0.2746782 0.09979767 -0.222746 -0.16807435 0.62800246
0.1662508 0.27348936 0.2728707 0.1552355 -0.24599656 0.026587427 0.058646783 0.019429775
0.4411292 0.12632608 -0.33632264 0.82603383 -0.13496332 -0.5386436 0.17550647 -0.5561315
-0.48131442 -0.4524499 0.06319209 -0.10989719 -0.21112156 0.4873605 0.059057962 0.36337146
0.62589824 0.042975385 0.20103946 0.20092326 0.446183 0.034509268 -0.048594948 0.18255599
0.21042864 0.1548368 0.5787198 -0.12938897 0.27292466 0.33513552 0.2243646 0.49260154
0.55816096 0.3404906 -0.25066012 -0.33230144 -0.088600844 -0.0038582275 0.17728065 0.30557385
0.37316036 0.54122126 -0.08343878 -0.07923749 -0.34138355 -0.24629618 -0.016419057 -0.20095555
0.29892573 -0.18085878 -0.14684288 0.10150865 0.3292339 -0.02201646 0.3173348 0.18269126
-0.099548206 -0.24642561 0.14298226 -0.24633855 0.19662681 -0.24638654 -0.24648017 -0.22848669
-0.018232213 -0.030281192 0.022713358 0.63397 0.022183111 0.5004651 -0.20662998 0.038835853
0.14309737 0.11555148 0.64011085 -0.0202268 -0.0824795 0.29444358 0.063698694 0.014539599

l1.bias f4 [8]
00000000: 1936 c63e 7dcd 2f3f be73 643f 7b4c 153f
00000010: 2848 7c3e 01fc f53e 01ad ec3e 0e54 d13e
0.38713148 0.68672925 0.8923911 0.58319825 0.246369 0.48043826 0.46225742 0.4088444

l2.weight f4 [8, 8]
00000000: ad62 a4be 3c05 683d b4d1 19be d7b8 16be
00000010: 0de7 303e 6d54 9ebe 477f 09be a154 7fbe
00000020: ad82 5f3e 6dc8 623e 9381 7fbf f499 5e3f
00000030: be5a 6c3f 68d6 5e3f b36a 7b3f 17ce fd3e
00000040: 25aa bfbe 1007 a83f e0b0 5f3f be17 263f
00000050: 093f 61bf d816 943e 9765 30bf ec4c 6fbe
00000060: 0b4e 10bd c1a4 923e 48e8 623f 8520 1d3e
00000070: d8e5 40bf 3904 963f ebe5 b1be 5223 b73f
00000080: 7071 4f3f 9517 ecbc 83ae 833f 2f5d d2be
00000090: 1045 61be 3f10 cabe 7d59 f4bd fe58 983f
000000a0: 3e67 6f3f a560 9fbf 84c8 713f d4e2 1f3f
000000b0: 7824 d33e 3a99 4bbf ab04 453f 91bf 31bd
000000c0: d464 be3d 01dd c53f 3043 fd3e 611b 09bf
000000d0: 16b5 0bbe 20ef 0bbf ba59 9a3f 8d4d 5fbe
000000e0: 31c0 31bf ccbd 82bd 1b27 f13e 7ee7 ac3f
000000f0: a5e5 d13e f074 593f 13c8 4d3f e363 87bf
-0.32106534 0.056645617 -0.15021402 -0.14718948 0.17275639 -0.30923787 -0.13427459 -0.24934627
0.21827193 0.22146769 -0.9980709 0.86953664 0.9232596 0.8704591 0.98209685 0.49571297
-0.37434497 1.3127155 0.87379265 0.6487998 -0.8798681 0.28923678 -0.68905014 -0.23369187
-0.035230678 0.28641322 0.88635683 0.15344436 -0.75350714 1.1720039 -0.34745726 1.4307654
0.81032467 -0.028819839 1.0287632 -0.41086718 -0.21999002 -0.3946552 -0.11931131 1.1902158
0.9351691 -1.2451369 0.9444659 0.6245549 0.4123876 -0.7953068 0.7696025 -0.043395583
0.09296575 1.545807 0.49465322 -0.535574 -0.13643298 -0.5466175 1.2058632 -0.21806927
-0.69433886 -0.06383857 0.47100148 1.3508146 0.40995517 0.8494406 0.80383414 -1.0577358

l2.bias f4 [8]
00000000: fcdd 40be ded8 7c3d 5e53 4a3f 18ad dd3e
00000010: d632 2a3f b007 973e e2ac cb3e 587c 283e
-0.1883468 0.06173026 0.7903346 0.43296123 0.6648382 0.29498053 0.39780337 0.16453683

l3.weight f4 [7, 8]
00000000: 2909 2abe 8681 81bf fd85 74bf 0441 863e
00000010: c76b 0e3f a1f9 5d3f a065 c43c 4a83 75bf
00000020: 12d7 633e 99ed 3b3f b0f4 71bf 7bbf 153c
00000030: dea9 68bf d51f 4abf 40fb 18bf 456a 853e
00000040: 285e 3fbe 2a3f 1cbf e2b1 303f e855 c93e
00000050: 9474 97bd 9288 993c d1e1 9bbf 47b6 d33e
00000060: 490d 8f3e 44ae a9bf a5fb 553f 1796 c33e
00000070: 18e2 e23e 943b fabe 146c 563f cd60 c7bf
00000080: 93e9 8a3e e0be 9e3e b3d6 b3bd 9dd4 273f
00000090: aefb 023f 700d 72bf 0956 8dbf 142f b1bf
000000a0: 52b2 793d 9c50 ee3d 1b31 1e3e 2a5f 7bbe
000000b0: 3874 4dbf ad50 92bf 74fb 3d3f 52e0 893e
000000c0: 22cf f5bd f27b 743e 1267 63bf 5067 88bf
000000d0: 05c5 57bd 341e 593f d9a3 d13d 9fe9 b53e
-0.16605057 -1.0117652 -0.9551695 0.26221478 0.55633205 0.8670903 0.02397424 -0.95903456
0.22250012 0.7340942 -0.9451399 0.009139891 -0.90884197 -0.7895482 -0.5975838 0.2605764
-0.18688262 -0.6103388 0.6902143 0.39323354 -0.073952824 0.01874188 -1.2178289 0.41350004
0.27939823 -1.3256307 0.83587104 0.38200447 0.4431312 -0.4887358 0.83758664 -1.5576416
0.27131328 0.31005 -0.08781185 0.655588 0.5116528 -0.94551754 -1.1041881 -1.3842492
0.060961075 0.11636469 0.1544842 -0.24548021 -0.8025546 -1.143087 0.7421181 0.26928955
-0.12002398 0.23875406 -0.8882915 -1.0656528 -0.052678127 0.8481171 0.102363296 0.355298

l3.bias f4 [7]
00000000: 5b32 f2be 0f61 233e f87b 2d3e 9c25 7ebd
00000010: 2b12 423e 1a91 adbe aeae db3c
-0.47304043 0.15954994 0.16941822 -0.062047586 0.18952243 -0.33899766 0.026816692
